…
mits the functions that could be executed during unpickling. Arbitrary objects will no longer be allowed to be loaded via this mode unless they are explicitly allowlisted by the user via `torch.serialization.add_safe_globals`. We recommend you start setting `weights_only=True` for any use case where you don't have full control of the loaded file. Please open an issue on GitHub for any issues related to this experimental feature.
  tensor_data = torch.load(f'{input_dir}/tensor_data.pt')
torch.Size([56, 64])
Parameters: 0.57M
HybridMambaLMHeadModel(
  (backbone): HybridMixerModel(
    (embedding): Embedding(56, 64)
    (layers): ModuleList(
      (0-11): 12 x Block(
        (norm): RMSNorm()
        (mixer): Mamba(
          (in_proj): Linear(in_features=64, out_features=256, bias=False)
          (conv1d): Conv1d(128, 128, kernel_size=(4,), stride=(1,), padding=(3,), groups=128)
          (act): SiLU()
          (x_proj): Linear(in_features=128, out_features=36, bias=False)
          (dt_proj): Linear(in_features=4, out_features=128, bias=True)
          (out_proj): Linear(in_features=128, out_features=64, bias=False)
        )
      )
    )
    (norm_f): RMSNorm()
    (attention): LlamaDecoderLayer(
      (self_attn): LlamaAttention(
        (q_proj): Linear(in_features=64, out_features=512, bias=False)
        (k_proj): Linear(in_features=64, out_features=512, bias=False)
        (v_proj): Linear(in_features=64, out_features=512, bias=False)
        (o_proj): Linear(in_features=512, out_features=64, bias=False)
        (rotary_emb): LlamaRotaryEmbedding()
      )
      (mlp): LlamaMLP(
        (gate_proj): Linear(in_features=64, out_features=256, bias=False)
        (up_proj): Linear(in_features=64, out_features=256, bias=False)
        (down_proj): Linear(in_features=256, out_features=64, bias=False)
        (act_fn): SiLU()
      )
      (input_layernorm): LlamaRMSNorm((64,), eps=1e-05)
      (post_attention_layernorm): LlamaRMSNorm((64,), eps=1e-05)
    )
  )
  (lm_head): Linear(in_features=64, out_features=56, bias=False)
)
  0%|                                                                                                                                                     | 0/20 [00:00<?, ?it/s]The attention layers in this model are transitioning from computing the RoPE embeddings internally through `position_ids` (2D tensor with the indexes of the tokens), to using externally computed `position_embeddings` (Tuple of tensors, containing cos and sin). In v4.46 `position_ids` will be removed and `position_embeddings` will be mandatory.
…
